data.pth (torch, 36465 bytes, 6 tensors)

fc1.weight f4 [32, 196]
000000 6c bc e3 3e 66 f3 76 be d9 c4 0d be 8b 10 10 be
       0.44479692 -0.24116287 -0.13844623 -0.1406881
000010 2d 4f 29 be 67 57 2e 3c 17 a3 90 3e a9 be 48 3c
       -0.1653411 0.0106409555 0.28249428 0.012252488
000020 ba 4a 08 3f 6a ab 0e bd 09 95 2e 3d c1 a6 87 bd
       0.53239024 -0.034831442 0.0426226 -0.06623603
000030 f4 31 1a 3f fa cb 20 be 07 a6 25 3f b7 a5 87 3e
       0.6023247 -0.15702811 0.6470646 0.26493618
000040 7d c6 83 be 55 43 e7 bd 66 c4 05 3f a2 81 04 3f
       -0.25737372 -0.112921394 0.52252805 0.51760304
000050 9a 9a ef 3d a6 e3 14 3f 5a 83 77 be a2 0a 1a bd
       0.1169941 0.58159864 -0.241712 -0.037607796
000060 53 e8 e4 bd 9b fb 08 be 37 88 04 3f 28 85 92 bd
       -0.11177125 -0.1337723 0.5177035 -0.07154304
000070 aa ac 1d bf b2 b2 09 bd 10 1b f0 bd 69 bc d3 3c
       -0.6159159 -0.033617683 -0.11723912 0.025846677
000080 1a 53 02 3f 0e 90 0b 3e 9d 78 0f bd 4a d1 b2 bd
       0.5090805 0.13629171 -0.035027135 -0.08731325
000090 24 31 a6 3b 86 ae 82 3e 70 42 93 be 9a 2a d8 bd
       0.005071776 0.25523776 -0.28761625 -0.105550006
0000a0 5b 9e 8c 3e 3f 78 19 be 7d bd ec 3e ad c8 38 bd
       0.27464566 -0.14987276 0.46238318 -0.045113254
0000b0 01 76 0a 3b c4 64 39 bf 5d a7 67 3d fa d3 b1 3e
       0.0021127465 -0.7241938 0.056556094 0.34732038
0000c0 ac 04 16 be db 99 05 3f 29 ad 80 be ac c0 d4 3e
       -0.1465022 0.5218789 -0.2513211 0.41553247
0000d0 48 d2 37 3f fb 44 55 bd a9 79 c7 3e bf 18 99 be
       0.7180524 -0.052067738 0.38960007 -0.29901692
0000e0 21 2d 16 bd 9b 93 0e 3c fc 12 61 3f c8 8b a9 be
       -0.036664132 0.008702184 0.8791959 -0.33114457
0000f0 ae 7d 3e be 10 0e 07 3f 4b e9 50 bd bc 25 f5 bd
       -0.1860263 0.5275583 -0.051003736 -0.11970088
000100 e2 1a 3f bd e0 26 28 be d7 87 d1 3e be 20 50 bd
       -0.046656497 -0.1642108 0.4092395 -0.050812475
000110 62 6e 16 3e 10 89 00 bd 12 71 8d bd 92 ac 96 be
       0.14690545 -0.031380713 -0.06906332 -0.29428536
000120 84 64 1f bd ff 6f 0c 3d dd a7 95 be a2 e1 c3 3e
       -0.03891422 0.034286495 -0.29229632 0.38258082
000130 df 72 03 3f f5 cf 21 3f d4 46 0d be 9c ef f6 3c
       0.51347154 0.6320794 -0.1379655 0.030143552
000140 2a 5f 92 3e 99 2f 4f bd 95 86 9d 3d d3 0e cb 3d
       0.2858823 -0.050582502 0.07691685 0.09914937
000150 00 de 87 be 98 b2 ae be 9a 21 90 bd e0 ab 23 bd
       -0.2653656 -0.3412063 -0.07037659 -0.039958835
000160 d9 64 67 3e 24 9f 4d be 10 b3 a5 be 11 36 91 be
       0.22597064 -0.20080239 -0.32363176 -0.28361562
000170 c4 c2 bc be 98 69 9b 3c 39 b1 dd bd 2a 9a 2d 3e
       -0.36867344 0.01897125 -0.10824818 0.1695334
000180 8f 59 b7 bd b0 9f 2f be 7e b4 a2 3e e2 65 a1 be
       -0.08952629 -0.1715076 0.3177833 -0.31523043
000190 9c af e0 bd 84 b2 91 be 78 7f d2 be ae 45 86 be
       -0.10970995 -0.2845651 -0.41112876 -0.26225036
0001a0 e3 49 0a 3f 5f 1c 17 3e a2 a7 f7 bd 93 55 d0 bc
       0.5401899 0.14756916 -0.1209252 -0.02543143
0001b0 83 10 0a bd f6 72 06 3e 6f af fa bc 2e bb f4 bd
       -0.033707153 0.13129792 -0.030601231 -0.11949764
0001c0 95 30 52 3f 7d ec 3a 3e 71 f3 7e 3e b6 f9 0a be
       0.8210538 0.18254276 0.24897553 -0.1357182
0001d0 29 0a b8 bd 57 90 5a bd d2 d4 a8 be c2 42 25 3a
       -0.08986313 -0.05336031 -0.3297487 0.0006304198
0001e0 72 92 34 be 12 ad 2d 3e f4 6c 14 3f b7 9f e7 bb
       -0.1763399 0.16960552 0.5797875 -0.0070686
0001f0 ca a1 5e be 9d b0 c9 3e 50 7f 2c be 39 a9 d2 bb
       -0.21741405 0.39392558 -0.16845441 -0.0064288643
000200 54 b8 8c 3d 55 d0 9e bd 19 fa 80 be 53 03 2e bc
       0.06871095 -0.0775458 -0.2519081 -0.01062091
000210 6e d7 3c 3f 6b 9a 89 be 41 fa 3b be 18 3d 69 bd
       0.7376622 -0.26875624 -0.18357183 -0.05694303
000220 f1 91 da 3c 96 55 8f bd 7e ab 0e 3e 54 fd a1 3e
       0.026680918 -0.06998746 0.13932607 0.31638587
000230 79 48 8a 3c 54 b8 31 bc a7 11 9a be dd 32 1c be
       0.01688026 -0.01084717 -0.30091593 -0.15253778
000240 d0 f3 80 bd e6 d5 d1 bd 45 9d df bd 46 db 17 be
       -0.062965035 -0.10245876 -0.10918669 -0.1482974
000250 e7 41 26 bf 70 66 9f 3a 54 fb a6 3e 99 a1 7c be
       -0.6494431 0.0012161266 0.32613623 -0.2467102
000260 f2 b9 5f be 0e 27 07 3f 78 76 93 be 54 60 9c bd
       -0.21848276 0.5279397 -0.28801322 -0.07635561
000270 25 48 d4 3e fd 21 86 be df 44 61 bd 18 bc d1 bd
       0.41461292 -0.26197806 -0.05499732 -0.10240954
000280 af c1 99 bd fa 35 01 be a4 39 a0 3e 36 4e 96 3d
       -0.07507645 -0.12618247 0.31293976 0.07339136
000290 25 a9 1f 3e 27 87 97 3c fb d3 11 3f 6d 88 72 be
       0.15591867 0.018497063 0.5696408 -0.23684855
0002a0 55 02 1c 3f e3 78 ff bd 8c a9 03 3f 78 97 91 bc
       0.6094106 -0.12474229 0.51430583 -0.017772421
0002b0 84 0f 74 bd 6c 34 26 3f 2a 94 10 bf 7b 6f 1c bd
       -0.05958511 0.6492374 -0.5647608 -0.038192254
0002c0 68 64 9c be 64 d0 56 3d 76 2a b7 3d 5b 20 0c 3e
       -0.30545354 0.05244483 0.08943646 0.13684218
0002d0 4a 64 34 be e4 77 50 be 4f b3 d2 bd 8a e3 cc 3d
       -0.17616382 -0.20358235 -0.10288107 0.10004337
0002e0 73 f1 07 3b 89 80 cd bc 93 ae 40 be a9 2b 80 3e
       0.002074328 -0.025085704 -0.18816595 0.2503331
0002f0 88 23 4d bd 13 fb a2 bc 08 89 1c 3f 71 3c 05 be
       -0.050082713 -0.019895112 0.61146593 -0.13011338
000300 1f cf 60 bd 5e 9c 09 be 10 4d 37 be 7e ae 91 bd
       -0.054885026 -0.13438556 -0.17900491 -0.0711336
000310 81 35 29 be 40 34 70 be 87 fa 98 3d ab 02 1d 3e
       -0.16524316 -0.23457432 0.07469659 0.15333049
000320 f5 58 1e be b3 91 38 bd dc ec 20 be 5c ca c5 3b
       -0.15463622 -0.045060825 -0.15715355 0.006036086
000330 fb 9b a2 bd 41 69 1a 3f bf fe 10 bf 73 fb 90 39
       -0.07939907 0.60316855 -0.5663871 0.00027653165
000340 b5 68 33 bc 3e b5 e9 3e 98 1c e7 bd f4 ea 75 be
       -0.010950257 0.4564609 -0.11284751 -0.24015409
000350 29 bc 1c be 3e f8 af 3e 63 c8 1a be 87 1b 37 bd
       -0.15306152 0.3436908 -0.15115504 -0.044703986
000360 a6 4d 91 3d d7 99 2a bd f8 10 fb 3e 81 5f 7a bd
       0.070948884 -0.04165062 0.49036384 -0.061126236
000370 6f 2e a2 3e 15 9b 15 3f a0 9f 77 bd 28 bf a9 3e
       0.3167605 0.5843976 -0.060454965 0.33153653
000380 58 89 20 3f fe 53 59 bd a9 54 a6 bb 25 fc 22 bd
       0.6270957 -0.053058617 -0.0050760102 -0.039791245
000390 57 be ab bd 28 00 8f 3c 38 7b fb 3b 14 93 9f 3b
       -0.08385914 0.01745613 0.007674601 0.004869828
0003a0 21 1a 49 bd a6 f1 d2 3e 84 0d e1 3e 1a 66 8e bd
       -0.049097184 0.41199988 0.43955624 -0.06953068
0003b0 f0 98 f6 3e 3a 01 b8 bd e3 42 a1 bd dc 90 13 3f
       0.48163557 -0.08984609 -0.07874086 0.5764291
0003c0 0b cc ac 3e f9 82 6d 3f 76 fa d5 3d 1a fb 60 bd
       0.33749422 0.92777973 0.10448162 -0.05492697
0003d0 3b 1c 99 3e 59 66 a2 bd 6b 8a c3 3d 4f 4b b4 bd
       0.2990435 -0.079296775 0.095478855 -0.088034265
0003e0 58 b6 75 be 93 39 a9 bc df d0 c0 bd 58 9f 94 3f
       -0.2399534 -0.020657336 -0.09414839 1.1611128
0003f0 6e e7 af 3b 1d cc 34 bd f3 b5 26 be 2b 70 19 3d
       0.0053681647 -0.04413997 -0.16280346 0.037460487

fc1.bias f4 [32]
000000 b0 f2 15 3e 73 bc 24 be dc 36 02 3e bf 12 23 3e
       0.14643359 -0.16087513 0.1271624 0.1592512
000010 d4 38 6f 3e 90 47 af 3e 16 c5 85 3e 01 e0 70 3e
       0.23361522 0.34234285 0.26126927 0.2352295
000020 be aa 30 3e b0 bc b7 3e f0 dc 8a 3e a2 72 58 3e
       0.17252633 0.35886145 0.27121687 0.21137479
000030 a4 ff 0c 3c ec 6d 6a 3e ce cd d2 3d 96 31 2b 3c
       0.008605871 0.22893494 0.102931604 0.010448834
000040 66 08 a2 bd b9 2f a6 3e 1e 25 68 3e 06 34 22 bd
       -0.07911758 0.32458284 0.22670409 -0.039600395
000050 70 15 03 3e e2 37 02 3e 77 43 eb 3d c7 c1 92 3e
       0.12801147 0.1271663 0.11487477 0.28663465
000060 b0 2a 06 bd fe b4 10 be dc 6a 40 bd 3e 78 50 3e
       -0.032755554 -0.14131543 -0.04697691 0.20358369
000070 b2 d5 89 3d 45 f9 46 3c 9f bd 06 3e 07 ea 91 bd
       0.06730212 0.012144391 0.13158272 -0.07124715

fc2.weight f4 [32, 32]
000000 cf c6 f6 bc f0 b5 af 3e e9 95 8b be 02 54 f6 be
       -0.030124096 0.34318495 -0.2726281 -0.48110968
000010 cd d6 2b be a8 c1 03 bf 9d 52 c6 be 1a a0 d5 3d
       -0.16781159 -0.5146737 -0.38734904 0.104309276
000020 16 88 d1 be 50 58 56 bf 38 8a 18 3f e4 50 fa 3e
       -0.40924138 -0.83728504 0.59585905 0.4888984
000030 10 56 10 3e 45 f0 cc bc 4a 18 73 bc da 0f fa 3d
       0.1409533 -0.025016913 -0.014837334 0.12210055
000040 41 87 19 3b a9 9b 05 be e2 78 c5 3e 2b 1c 01 3e
       0.0023426565 -0.13047661 0.3856879 0.12608401
000050 2b 19 07 40 a9 aa 2a bc c5 51 e2 3e c9 01 30 be
       2.1109111 -0.010416665 0.4420301 -0.17188181
000060 dd a0 89 3d e6 97 5a 3f a4 e3 1a 3d 77 01 e4 3e
       0.06720135 0.8538803 0.03781475 0.44532368
000070 be c7 c2 be 0f 55 66 be a2 9d 31 3e 75 62 fa bd
       -0.38043016 -0.22493385 0.17345288 -0.122258104
000080 1c f4 5d 3e c1 a2 fa 3f ce bd 58 3e d6 77 b6 be
       0.21675152 1.9580919 0.21166155 -0.35638303
000090 6b 36 4a be f2 ae 92 be c4 8b 7c be 79 2e 1d be
       -0.19747321 -0.28649098 -0.24662691 -0.15349759
0000a0 8b 06 07 bd e6 40 97 be d0 8a 41 3d 5e d4 98 be
       -0.032965224 -0.295417 0.047251523 -0.29849523
0000b0 76 06 d1 3f 1c 8f e7 bc 01 57 c2 bc f1 17 57 3d
       1.6330097 -0.028266482 -0.023723127 0.052513067
0000c0 5a b8 52 3e 1a 0f c2 3e 97 f7 67 bd fd a2 1f be
       0.20578137 0.37902147 -0.056632604 -0.15589519
0000d0 e1 17 3a 3e 05 91 b1 be a8 1c b1 bd 54 f7 d1 bd
       0.18173172 -0.34680954 -0.08648044 -0.10252252
0000e0 74 73 3a 3f 4d 57 92 3f 0a f5 1b 40 9d 61 a2 be
       0.7283242 1.1432892 2.436831 -0.31715098
0000f0 9d 39 4e 3e 2e d6 1e be e1 b3 df be b0 09 5a 3f
       0.20139165 -0.1551139 -0.43691924 0.8517103
000100 e1 56 ad 3e 6f 3f 5f bd be 19 89 3e 6b 0f c6 bc
       0.33855346 -0.054503854 0.26777452 -0.024177274
000110 20 99 0d bb be 65 75 3c 8b a5 46 bd 04 24 9c bd
       -0.0021606162 0.0149778705 -0.048497718 -0.07624057
000120 ed be 1e be 90 87 1a bd 45 9c 3d 3e 1d e8 07 40
       -0.1550252 -0.03772694 0.18516643 2.123542
000130 3a ed 09 be 12 d0 bb bd 35 9b 22 be da 4c 7c 3f
       -0.13469401 -0.09170546 -0.1587952 0.98554766
000140 87 1e 11 3f 5c d3 02 be 12 18 58 bd 53 49 30 3d
       0.56687206 -0.1277594 -0.05275733 0.043038677
000150 85 30 ee 3d 96 06 9b bd 6a 67 98 3f 3a b9 bc 3d
       0.11630348 -0.075696155 1.190656 0.09215017
000160 b6 18 7b 3d 8e 32 be bd 69 c9 01 bd dd 67 0e 40
       0.061302863 -0.09286986 -0.03168622 2.2250893
000170 25 b3 36 bd 28 4a 8b 3f ba be bf 3f b7 ba 33 3d
       -0.04460444 1.0882006 1.498008 0.043879237
000180 43 54 a4 be 05 71 85 3e fa 08 fb bd 8d 8e a5 bd
       -0.32095537 0.2606279 -0.122575715 -0.0808383
000190 85 1b 2a be 50 42 ef 3d 40 d4 5d bd d0 3a 11 3f
       -0.1661206 0.1168257 -0.054157495 0.56730366
0001a0 11 8e aa bd b2 16 db bd 15 79 0c 3e ca d5 98 3e
       -0.08327878 -0.10697688 0.13718064 0.29850608
0001b0 44 c4 2a be 14 d3 17 3e ce d3 64 bc fa 24 4c 3d
       -0.16676432 0.14826614 -0.013966514 0.04983995
0001c0 6e ff a1 bf 75 5d f4 3d 62 0c f7 3f 4d ad 0d be
       -1.2656076 0.11931888 1.9300654 -0.1383564
0001d0 ce 2f 01 3e de 91 93 be 89 d0 a4 bd 88 cc fd 3d
       0.12615892 -0.28822225 -0.080475874 0.12392527
0001e0 4d a5 1f 3f 09 15 9d 3f a1 db 50 be 9d f5 e0 39
       0.62361604 1.2272044 -0.20396282 0.00042907606
0001f0 71 d1 9c bf ed 9f 33 3e c9 e6 c0 bc 38 b5 0f 3f
       -1.2251416 0.17541476 -0.023547547 0.5613589
000200 3c 2b 54 3e 39 af 10 bd fc 8d 6f bd 49 6c 70 3f
       0.20719618 -0.035323355 -0.058485016 0.9391523
000210 35 be a4 3e b2 cb 21 3f 2d 0e c0 3f 1b 0a eb bc
       0.32176366 0.6320144 1.5004326 -0.028691342
000220 83 13 e9 be 11 f4 b5 3f 04 aa 0c 3e 77 82 21 3e
       -0.455227 1.4215108 0.13736731 0.15772425
000230 73 25 83 bd 61 f5 c4 bd 9c 20 f7 bd e2 39 1c be
       -0.06403627 -0.09617115 -0.120667666 -0.15256456
000240 07 dd ba 3f e7 e3 40 bc 53 fb 12 bd 26 5f 29 bd
       1.4598702 -0.011773086 -0.035884213 -0.041350506
000250 7f 5a a5 ba de a4 b6 bd a5 a2 00 3f 7c 16 20 40
       -0.0012615471 -0.08918165 0.50248176 2.5013723
000260 ff 41 93 bd 69 68 2b bf 94 4a 91 3d e1 86 7a 3e
       -0.07190322 -0.6695619 0.07094303 0.24465515
000270 ea a9 61 3f 44 db 20 be f4 c9 04 be d3 8f ef bd
       0.88149893 -0.15708643 -0.12967664 -0.11697354
000280 bf 8a 83 bf a7 99 52 3d b9 c5 88 3e 33 5b fe 3e
       -1.0276717 0.051416066 0.2671335 0.49678954
000290 5f 7a 53 3d e2 48 31 3e b5 26 7d bf 57 01 9b 3e
       0.051630374 0.17312959 -0.9888719 0.3027446
0002a0 62 3c a9 bb ec c2 1c 39 33 b9 72 bf d4 ea 98 be
       -0.005164669 0.00014949933 -0.9481384 -0.2986666
0002b0 0d 6b 5a be 1a f7 54 3e 52 38 08 3f 7f 1e 4d bf
       -0.21329899 0.20797387 0.5321094 -0.8012466
0002c0 3c e2 34 3e 33 2b 9f bf ed 33 1b be 73 5c 18 3f
       0.17664427 -1.2435058 -0.15156527 0.59516066
0002d0 b0 df 99 bf 3b 4c f8 3d 5b f1 97 be 24 af 92 be
       -1.2021389 0.12123915 -0.29676327 -0.28649247
0002e0 e6 ae 43 3d f6 1e f1 bd 38 e1 a9 3e dc 80 7c bf
       0.047774218 -0.117734835 0.3317964 -0.98634124
0002f0 02 f2 b2 3e f7 8e 08 be f0 5e da be 5b cd 8e 3e
       0.34950262 -0.13335787 -0.42650557 0.2789105
000300 46 bd 2c 3f 73 28 2b bf 07 4f 5c 3e 2e f4 69 bd
       0.6747631 -0.66858596 0.21514522 -0.057117634
000310 fe 7e 0c 40 8f 2b 78 3f f5 93 38 bc ba 8c 02 3c
       2.195251 0.96941465 -0.011265744 0.007968122
000320 34 2c db 3f 5d dd ae 3b f8 d0 11 3e e0 8e 41 3f
       1.7122865 0.005336447 0.14239872 0.75608635
000330 bd 3f 52 be b4 fb 7f 3f e2 17 a4 bd 6d aa 48 3f
       -0.20532127 0.99993443 -0.08012368 0.7838505
000340 fc 24 81 be d8 d9 8b 3b d0 ee 75 3c 9c da 21 be
       -0.2522353 0.0042679124 0.015010551 -0.15806049
000350 94 8d 54 3d 90 c4 f0 3d 00 52 8a be e1 a4 4a 3d
       0.051892832 0.11756241 -0.27015686 0.049473647
000360 8d f0 3b 3e c6 fd 62 3d 75 e2 bb be 2b 14 4c 3f
       0.18353482 0.0554178 -0.3669621 0.79718274
000370 60 f2 65 be 28 31 ff be b1 bc 38 3e fa b1 1d be
       -0.2245574 -0.4984219 0.1804073 -0.15399924
000380 e8 07 c9 be 1a 41 56 be 09 27 47 bf e4 0c 84 3d
       -0.39263844 -0.20923272 -0.7779394 0.06447771
000390 e6 62 87 be bd 41 10 be 16 66 82 3f 37 e8 48 3f
       -0.2644264 -0.14087577 1.0187404 0.7847933
0003a0 ed 52 a8 be 1b c1 e7 3e f6 fe c4 3e c2 a8 e9 bd
       -0.32875767 0.45264515 0.3847577 -0.11409141
0003b0 2f d6 92 3e 05 7c 40 be c7 b6 d6 3d fe de 21 bf
       0.28679034 -0.1879731 0.10484081 -0.63230884
0003c0 52 3b 40 bf 4e f4 1f 3f 51 a5 a3 3e 59 01 b8 bd
       -0.75090516 0.62482154 0.31962064 -0.08984632
0003d0 94 b9 a0 3d 71 1a e5 3e 65 a6 c3 3e 0f 89 ff 3e
       0.07847896 0.44746736 0.38212886 0.49909255
0003e0 2e 24 8f bf 90 87 8d be a0 cd 9f bd 1c 00 0e be
       -1.1182916 -0.27642488 -0.07802892 -0.13867229
0003f0 2c 9e 65 3d a0 9c 39 3d 58 c3 38 3d 4d e0 5b bf
       0.056059048 0.045315385 0.04510817 -0.8588913

fc2.bias f4 [32]
000000 e6 2e 38 3e 0a f7 9c 3d bc 98 32 3d 0b f6 97 3d
       0.1798664 0.076643065 0.04360269 0.07419976
000010 ef 1b 90 bd cf 75 95 bc e9 ea 2a be 45 dc be 3e
       -0.07036578 -0.018244652 -0.16691174 0.37277427
000020 7b 4a 9b be 0a e4 8d 3e 70 f7 87 3d 87 76 1d 3c
       -0.30330262 0.27713042 0.06638992 0.009610779
000030 37 18 a1 3e 6a 47 3f 3d ca 05 cb bd 1b ca ab be
       0.31463787 0.046698965 -0.099132136 -0.33552632
000040 85 9a 07 3f 92 c1 46 bd 10 3d b8 3e 34 d1 95 bd
       0.52970153 -0.048524447 0.35984087 -0.07315293
000050 ba b5 ad be a7 cc e5 be 18 d9 25 3e b1 bc a8 3e
       -0.3392771 -0.448827 0.16196096 0.3295646
000060 65 57 61 be cd a9 92 bd 33 66 3e 3e 66 3c 95 be
       -0.22005995 -0.07161293 0.18593673 -0.29147643
000070 3c b2 4c 3e 36 21 33 be 0f 78 bf 3d 3b d5 e5 3e
       0.19989866 -0.17493138 0.09349071 0.44889244

fc3.weight f4 [13, 32]
000000 bf 84 bc bd 6f 74 ce bf c2 ed 34 3e 06 72 0d 3e
       -0.09205007 -1.6129283 0.17668822 0.13813028
000010 47 6d 82 bf f0 0a 73 3e 67 76 06 bf cc ca 8d 3e
       -1.0189599 0.23734641 -0.5252442 0.27693784
000020 ae 6a 83 be 11 5d c6 3e e1 e6 85 bf 25 d0 83 3d
       -0.25667328 0.3874288 -1.0461084 0.06436185
000030 f0 68 6d bd 8a 77 83 3e b0 e3 1b c0 32 88 42 bf
       -0.057961404 0.2567714 -2.435772 -0.7598907
000040 5c ea af 3e bf 77 3c 3e b6 78 02 3f f6 7a d2 bf
       0.3435849 0.18405055 0.5096544 -1.6443775
000050 13 e6 15 bf 08 29 93 bf 6a 1e 0a 3e e2 64 8e 3e
       -0.5855419 -1.1496897 0.13488165 0.27811342
000060 68 57 9b bf 66 62 8c bf 5c 3d 83 bd 33 a1 29 c0
       -1.2136049 -1.0967529 -0.06408188 -2.6504638
000070 e1 ee 75 3e 6a 02 16 bf 6e cd 4a 3e 44 a2 78 3e
       0.24016906 -0.58597434 0.19804928 0.2428065
000080 8c 34 3f 3e 1a da 64 3e e5 e2 a7 3e 15 19 ba 3e
       0.18672389 0.22348824 0.32790294 0.3634726
000090 13 e1 ae bf 47 20 ce be 57 25 08 3d 95 91 24 c0
       -1.3662437 -0.40259 0.033238735 -2.5713856
0000a0 94 b3 a1 3e 02 6d cb 3e f9 c8 70 bf 52 c7 5c 3e
       0.3158232 0.39731604 -0.9405666 0.2156041
0000b0 f0 7d 90 3e 1f 43 53 3e 72 8a 3a 3e 1c 65 8d 3e
       0.28221083 0.20631073 0.18216875 0.27616203
0000c0 4d f4 ef 3d 41 82 25 3e 6c ad 80 3e 2f da 01 c0
       0.117165186 0.16162969 0.2513231 -2.0289419
0000d0 a2 48 1f bf 36 c1 3f 3e e6 26 d5 bf 88 17 b8 3e
       -0.62220204 0.18726048 -1.6652496 0.35955453
0000e0 1f ce 6a 3d bf a4 9e bf 96 4b 47 bf d6 05 c6 bf
       0.05732548 -1.2394027 -0.7784971 -1.5470531
0000f0 85 ee 86 bf 94 c2 33 bf 8b 04 05 c0 20 07 df bf
       -1.054154 -0.7021878 -2.0784023 -1.7424049
000100 00 02 8c 3e 27 4a 79 3e 8a e5 8f bf 80 14 ac 3e
       0.27345276 0.24344693 -1.1241925 0.3360939
000110 cf c2 00 c0 ae f6 88 bf 55 93 dc bf 94 8f 91 3e
       -2.0118902 -1.0700281 -1.7232462 0.28429854
000120 3d 5a 10 c0 71 7b 4c bf fc b2 39 be 68 f4 3b bd
       -2.2555077 -0.79875857 -0.18134683 -0.04588738
000130 89 0c 8d 3e 01 ab a3 bf 03 1c 98 bc 49 b6 10 bf
       0.27548626 -1.2786561 -0.018568045 -0.56528145
000140 b3 e3 9b 3e 6c 07 0e c0 9e a7 b9 3e f9 eb 66 3e
       0.30447158 -2.219203 0.36260694 0.22550954
000150 bf 87 3b bf b2 11 ae bf 71 5c 89 3e 15 4f f0 be
       -0.7325401 -1.359915 0.2682834 -0.46935335
000160 e2 2a c7 3c 11 f2 41 bf 15 a7 fa 3d 86 6a e7 be
       0.02431244 -0.7575999 0.122388996 -0.45198458
000170 13 ff 8c 3e cf fd 97 bf 28 69 8f bf d1 3e 82 3e
       0.27538356 -1.1874331 -1.1203966 0.2543855
000180 15 f1 57 3e f5 42 dd bf 2b b7 9d 3e fe 88 84 3e
       0.21088059 -1.7286059 0.3080381 0.25885767
000190 fb 33 95 3e eb 57 c3 bf 69 09 b0 3d 7f 72 86 3e
       0.2914122 -1.5261205 0.08595545 0.2625923
0001a0 0f 19 b9 3d f5 fd 89 bf 23 58 1e be a0 1a 1b c0
       0.09037983 -1.0780627 -0.15463309 -2.4235
0001b0 5d 80 c5 bf eb 80 74 bf 7d d7 30 c0 b5 3f 14 c0
       -1.5429798 -0.95509213 -2.7631524 -2.3163884
0001c0 51 e0 6e 3e f1 df 1f 3e f5 67 23 bf 37 41 84 3e
       0.23327757 0.1561277 -0.638305 0.25831005
0001d0 e6 cf b6 3e 18 16 ae bf 6e f5 20 3e 2b 3c d9 bf
       0.3570549 -1.3600492 0.15718624 -1.6971487
0001e0 dd 3b 6b 3e 39 b6 6c bf 70 4b 58 3e b2 d9 84 3d
       0.22972055 -0.9246555 0.21122527 0.064868346
0001f0 6b d1 10 3d ea d4 78 3e 8c fc 57 bf 53 27 1d 3e
       0.035355967 0.2429997 -0.8436973 0.15347032
000200 80 53 53 bf 59 ad 64 bf b9 d2 c4 bf ba 23 4a 3e
       -0.82549286 -0.8932701 -1.5376807 0.19740191
000210 15 dd 94 3e 96 2c 57 be 3f 49 82 3e 25 0b 88 3e
       0.29074922 -0.21013102 0.25446507 0.26571003
000220 39 cd 8b bf 87 a8 76 bf d0 25 af 3e 19 95 15 c0
       -1.0922004 -0.963509 0.34208536 -2.3372252
000230 f8 74 d9 bf a8 7a 84 3e 8e e6 00 bf ae 62 3a bf
       -1.6988821 0.2587483 -0.503518 -0.72806823
000240 33 55 78 3e 6b 02 1e c0 e3 93 6d bf 04 1d 50 3e
       0.24251251 -2.4688976 -0.9280378 0.20323569
000250 e8 f0 8d 3e a8 a9 9e bf 43 37 6c 3e 13 15 49 bf
       0.2772286 -1.2395525 0.23067956 -0.7854778
000260 d0 1e 8d 3d 46 02 43 3e 71 39 bc 3c 10 3b 14 3e
       0.06890643 0.19043836 0.022976609 0.14475656
000270 8d bf 8c 3e 52 9f 3c bf 47 a4 82 3e 39 a2 69 3e
       0.27489892 -0.73680604 0.2551596 0.2281579
000280 fd b9 e6 3d 7c a0 90 3e 78 56 34 3d 15 3b 9a 3e
       0.11265943 0.2824744 0.044027776 0.301232
000290 9e 4e 30 bf 78 0c 64 bf d2 81 53 3e ef a0 e2 bf
       -0.6886996 -0.89081526 0.20654991 -1.7705363
0002a0 22 d0 1a 3e a8 e6 77 be 14 fe 81 3e 04 db f4 3d
       0.15118459 -0.24209082 0.2538916 0.119558364
0002b0 eb fc 83 3e 13 9c 17 3e b2 54 19 3e 8a a9 a4 3e
       0.257789 0.14805631 0.14973715 0.32160598
0002c0 10 6b ab bf 8c 86 3a 3c 90 46 a2 bf 9e 0a c4 3d
       -1.3392048 0.011384618 -1.2677784 0.095723376
0002d0 00 54 7d bf e3 90 5e 3e 32 62 86 3d b7 c7 d2 3d
       -0.989563 0.21734957 0.06561698 0.10291999
0002e0 c7 f3 24 3e c5 14 ae bf 7a 5b d7 bb bc 5d 8c 3d
       0.16108619 -1.3600088 -0.006572184 0.06853816
0002f0 18 7d 2f 3e be 51 8e be 03 db 1d 3e 48 ea aa 3d
       0.17137563 -0.2779674 0.15415578 0.08345467
000300 bf 1d 1b c0 d9 7b 76 bf 8a f8 8d bf 21 be 8a bf
       -2.4236906 -0.96282727 -1.1091473 -1.0839273
000310 14 33 0e bd 2b e2 09 3f 9b cd a1 3e 47 79 ae be
       -0.03471668 0.5386073 0.31602177 -0.34076902
000320 10 7f 73 3e d3 97 b4 3e aa fd bd 3e c0 0c 99 bf
       0.23778939 0.35272083 0.37107593 -1.1957016
000330 2e 83 85 bf 1e 3e 7a 3e 9d c3 d4 3d 1c 21 0e 3e
       -1.0430658 0.24437758 0.10388873 0.13879818
000340 8a 2b 25 3e 78 bc 02 be 5a d8 53 bf 29 12 0f c0
       0.1612989 -0.12767208 -0.82752 -2.2354834
000350 d6 47 14 bf 92 be 13 bf c0 60 2e 3e d9 43 77 3e
       -0.5792211 -0.5771266 0.17029095 0.24146976
000360 7b 4a 1e bf a0 19 ce 3e 21 46 31 c0 8f df d2 3d
       -0.618324 0.40253925 -2.7699053 0.10296547
000370 b9 3b 9c 3e da 29 4f 3d 1a e7 94 3e e5 e9 80 3e
       0.30514315 0.050577022 0.29082566 0.25178447
000380 7b 8c 80 bf 7e 35 9f 3e 5e 53 86 3d 95 d7 a4 3d
       -1.0042871 0.310955 0.0655887 0.080489315
000390 bd b2 48 3e 41 13 d1 3e 98 c3 78 bf 76 74 9b bf
       0.19599433 0.40835002 -0.9717345 -1.2144916
0003a0 cc 4b f0 3d 81 d5 9c 3e 0e 61 27 3e 92 03 59 3e
       0.11733207 0.3063164 0.16345617 0.21192768
0003b0 3b e8 57 3e 46 c5 8d be 8b 16 4b 3e ca df 8a 3e
       0.21084683 -0.2768957 0.19832818 0.27123863
0003c0 9b da 84 bf 98 e2 bd 3d 8e bc 91 bf c4 74 8d 3d
       -1.0379213 0.09271735 -1.1385667 0.06907037
0003d0 0b 95 6f 3e 84 a5 8e 3e 51 6a 2b bf 6c b5 95 3e
       0.23396699 0.27860653 -0.669591 0.29239976
0003e0 4e 72 e4 bf 7e ae b2 3e 86 be 7b bf cf 18 be bf
       -1.7847383 0.34898752 -0.9833759 -1.4851321
0003f0 96 e8 aa bf bb a6 7e 3e dd b2 a0 bf 07 06 e4 bf
       -1.335223 0.2486829 -1.2554585 -1.7814339

fc3.bias f4 [13]
000000 eb 4a 0f 3f b9 f6 22 bf 13 bd 23 3f 19 c1 40 3e
       0.5597369 -0.6365772 0.6396038 0.18823661
000010 70 36 8d bd 8e 40 13 bf e1 f0 0c be c0 3c 17 3e
       -0.06895149 -0.5752038 -0.13763763 0.14769268
000020 8f 37 69 bf d0 3d b8 be 3a c4 cf 3e d7 24 e4 be
       -0.911004 -0.3598466 0.40579396 -0.44559357
000030 98 07 a3 3e
       0.3184173
